Results/Weights/quantum_model_params.npz (npz, 2188 bytes, 3 tensors)

quantum_conv_0 f8 [9, 16]
000000 78 d3 30 17 3a 5c e2 bf a2 eb 12 4a 66 73 da bf
       -0.5737581685012705 -0.41329343065052104
000010 40 f3 0f 20 db d3 d9 bf 75 15 6f 61 a7 79 a7 bf
       -0.4035556614979221 -0.045850020068921284
000020 9c 62 7c b0 ce 2b 6a bf 4c 63 91 72 bb fb 9c bf
       -0.003194717111807256 -0.028304032199545845
000030 86 6d ad c1 c4 d0 bc bf eb 1c c4 af 23 bf 96 bf
       -0.11256055572942189 -0.022213513949307744
000040 c3 d5 56 41 4b c3 e2 3f 56 f4 e4 99 46 81 76 3f
       0.5863395954281078 0.0054943807465948815
000050 7a 96 c5 d2 bc af 8b bf f4 78 11 4d 8e 79 8b bf
       -0.013518786604161937 -0.013415443159996411
000060 8b 44 ad 05 90 06 e3 bf 03 36 d8 c3 67 02 a6 bf
       -0.5945510969996958 -0.04298710122757756
000070 16 63 b1 9c c7 14 a8 bf a8 b3 de f8 52 ff 64 bf
       -0.04703353679423665 -0.0025631542730110875
000080 a4 a8 ba 46 e0 99 86 3f b0 24 d1 5b f2 77 66 bf
       0.011035682829362799 -0.002742741925008639
000090 fa eb 98 e1 be e4 94 3f 64 e9 15 61 64 93 a1 bf
       0.020403845328683425 -0.034327637530583016
0000a0 10 53 cb ca db a1 a3 3f ee 59 1e 72 3f 77 83 3f
       0.038344257836490425 0.009504790945169508
0000b0 a4 a1 51 14 b3 af 7f bf 25 4a 61 cf e2 16 a2 bf
       -0.007735919503013031 -0.03533085614676094
0000c0 2a fd 02 ef 52 6e 75 bf 3c 2f 8c c7 03 b9 86 bf
       -0.0052321662516868015 -0.011095075156411498
0000d0 cc 0e 33 f5 e7 bd 77 bf 66 00 7d fd 8d eb 81 3f
       -0.005796342930981257 0.008750066088055241
0000e0 a4 05 23 05 35 1c 6c 3f ed 0e f6 f1 9f c7 79 3f
       0.003431418947997771 0.0062938926561206645
0000f0 0c ce a6 03 d8 7a 6d 3f 5e 0f 76 cf 89 1a a7 3f
       0.0035986155537217675 0.04512434632763872
000100 98 00 4e 32 9a a1 56 3f 40 71 10 23 c6 f4 77 3f
       0.0013813024354192623 0.005848669025933895
000110 f6 26 a0 12 66 d7 97 bf e8 49 f0 d3 e9 a6 8d bf
       -0.023282618414703436 -0.014478518276551847
000120 79 11 b4 43 0e ac 83 bf fe c1 49 c3 57 f0 a4 bf
       -0.009605513993400138 -0.04089617022407664
000130 31 0d a5 eb bc 2f 9b bf fe 50 ac 36 e9 01 84 bf
       -0.026549293406117506 -0.009769269925108844
000140 5b df c3 c9 9b d1 94 bf 5b 18 9a ae f4 58 85 bf
       -0.02033084315277676 -0.010423575952938238
000150 36 e3 d9 94 1c fe 86 3f 2f 9c ee 2a b9 4f 74 3f
       0.011226867001128942 0.004958842574445162
000160 0c 79 28 8d 29 12 a4 bf c7 78 9f a1 0c 4b 93 3f
       -0.03920106742974569 0.018840978016549294
000170 12 4d f0 c6 c6 e9 8b bf f8 b1 19 4b f8 3e 78 bf
       -0.013629486986281001 -0.005919427772465451
000180 3a 3e e7 e3 07 63 68 3f fe 57 c1 09 d4 fc a7 bf
       0.002976909075392856 -0.04685080164988163
000190 00 3b fd d6 60 36 4d bf 92 ef 21 fb 49 b3 84 bf
       -0.0008914921618073668 -0.010107591606576514
0001a0 e1 51 bf 9a f9 54 8d 3f 3e c6 f2 3d 12 18 75 bf
       0.014322233233465322 -0.005149909265286077
0001b0 a7 8d 41 21 6b 6a 82 bf 84 ff 65 71 55 3a 93 bf
       -0.008992039635080952 -0.018777213140765095
0001c0 80 5f c9 cf f4 b4 97 3f 76 36 dd 60 c0 c3 6d 3f
       0.023151230985916538 0.003633380640997437
0001d0 00 7b 9a b1 6e 04 41 3f 03 ff 3a 5b cd 89 8e bf
       0.0005193272110835812 -0.014911274286873338
0001e0 98 43 88 7d a0 d9 89 bf 34 07 82 ea 79 81 84 3f
       -0.012622121649686055 0.010012581318963855
0001f0 00 7e 4e 06 e2 05 24 bf 56 0b d6 d7 7d 79 87 bf
       -0.0001527632149675856 -0.011462195538802494
000200 e7 f4 ae eb 49 cf 97 bf a0 4d 7e ed 78 08 9e 3f
       -0.023251681337332377 0.029329194541401926
000210 92 cd 00 1b 69 e6 80 3f ad 37 7d 7b 68 ab 88 bf
       0.008251973282404266 -0.012045685070599743
000220 96 a0 41 2f d3 33 7a 3f 40 53 ca 23 39 bc 84 3f
       0.006397080364060189 0.010124632267698552
000230 7c 0d b4 b4 a0 06 7a 3f d5 3f 61 2d 3a cd a5 3f
       0.006353976971925742 0.0425813846965181
000240 9c e7 2c ae a9 3e 6c 3f 60 00 7a 1c 91 6a a6 3f
       0.0034478487081317077 0.04378179047216757
000250 ca f0 da 12 ea 0b 8c 3f f3 33 47 37 89 d7 97 bf
       0.013694599819580228 -0.023283142088803954
000260 69 0b 15 3d fb e6 83 bf ec b6 4a 0b ba 9c 75 3f
       -0.009717905809002851 0.005276419386672986
000270 90 ea dc 67 76 a7 84 bf e9 66 a9 4b 3d 34 a4 bf
       -0.010085034412999933 -0.039461055265474894
000280 bc f7 79 56 d4 84 83 3f a8 db 30 3b 12 d3 76 3f
       0.00953069580941334 0.005572386947327347
000290 7b 32 e1 b1 d1 0c a4 3f bc a1 5b ae 8d eb 81 bf
       0.03916030212767382 -0.00875006378505893
0002a0 af 52 d0 97 c9 c5 97 3f 36 ad 17 4e c8 c6 85 bf
       0.02321543683145205 -0.010633053668206754
0002b0 0c 18 e7 af 54 66 94 bf 00 cb 2a 12 ee 1e f7 3e
       -0.01992161105751937 2.2049732374805446e-05
0002c0 c8 0e 81 c1 33 c8 7d bf a2 17 87 c8 d8 27 83 3f
       -0.007271005793942194 0.009353345508212933
0002d0 69 38 79 be 3c 63 85 bf 5f bc 49 df 52 e4 8f bf
       -0.010443186342993198 -0.015572211684427182
0002e0 25 64 5c 2f 5f 8e 91 3f 60 d2 6f 1c 43 3a 29 3f
       0.017144667878799553 0.00019247121073785994
0002f0 aa a6 80 a2 17 86 86 bf ff cc 4f e0 ae 8e a3 bf
       -0.010997948309597067 -0.038197960740854235
000300 6e 3f 23 f6 f5 53 77 bf d7 24 c1 df e1 3a 82 bf
       -0.005695305621159592 -0.008901371613449545
000310 e6 0c 0e 6e ee b7 72 bf 66 a8 d3 f9 22 61 83 3f
       -0.004569941870502725 0.009462617158039598
000320 a0 1c 92 3f 48 b4 a1 bf a6 bd f9 2c 26 7b 8b bf
       -0.03457856918344615 -0.013418482062859404
000330 04 0b 7c c8 2a ec 66 bf 78 92 34 1e 0a b0 97 3f
       -0.002798160134149243 0.023132474988545287
000340 4f 95 9b 33 fc fe 85 3f 6b a8 28 49 94 15 89 3f
       0.01074025185102792 0.012248190386419297
000350 2c 29 e5 23 96 8a a6 3f 92 e2 77 d6 19 25 85 bf
       0.0440260809724172 -0.010324670655778054
000360 e6 6b c9 8d 8f 84 82 bf 08 fc 21 4f f5 71 81 3f
       -0.009041902079095675 0.008518139340820255
000370 62 1b e0 e5 9a e4 a5 bf 0c 1a c0 7d eb 34 62 3f
       -0.04275974327179345 0.0022224997937911935
000380 54 34 86 ab 81 f9 7b bf 20 97 98 65 fc 8d 58 3f
       -0.006829744838239799 0.001498695832546422
000390 49 dc d3 50 c9 2f 84 3f 32 0b fa 64 c8 07 74 bf
       0.009856770304834355 -0.0048902347476793995
0003a0 24 74 d5 a2 19 fa 6a 3f b3 9d 30 8b 35 70 80 bf
       0.003293085165451364 -0.008026521978606071
0003b0 32 e4 3c ad 25 82 73 3f 46 57 6f 30 d8 ba 95 bf
       0.004762789892816465 -0.021220567661507837
0003c0 2e d6 31 db 91 72 97 bf e9 78 b6 bb 07 ce 94 3f
       -0.022897986415463638 0.020317192871169096
0003d0 5a ba 06 54 6d 2b a1 3f 6c c7 9f 9b f3 20 a1 bf
       0.03353444719993055 -0.033454525706374166
0003e0 d8 a7 83 36 22 ba 54 bf 1d 95 7a 6a 90 5c 9a 3f
       -0.0012650808440022223 0.0257437291135335
0003f0 1e f1 db 23 46 77 8b 3f 98 b4 84 b0 62 e7 5f bf
       0.013411090821585033 -0.001947256447304901
000400 b8 2e 20 7d d7 b2 85 bf a5 0b b9 25 fe 67 85 bf
       -0.010595019823106497 -0.01045225670453027
000410 50 40 bf 2c 09 1b a6 bf dd 5f 2e fe d7 17 80 bf
       -0.043175017082490386 -0.007857978291028129
000420 20 bf 77 f7 db af 75 3f 1a 60 5b e6 9a 9a 8a 3f
       0.0052946655700763234 0.012990198283134236
000430 9a 79 a9 83 df 1d 94 3f ad 7a a4 a6 b2 16 a6 3f
       0.019645206843387088 0.043141920892812415
000440 51 68 5c 53 31 37 97 3f 54 6e f5 65 aa ff 54 3f
       0.02267148085875476 0.0012816585584322264
000450 06 e7 a6 c8 12 d1 97 bf 32 80 ee 81 b5 0f 90 bf
       -0.023258489128898517 -0.015684925132177514
000460 d4 04 26 b0 af 73 83 bf 73 91 51 54 93 ef 98 3f
       -0.009497997820974304 0.02435140802516984
000470 a9 c2 04 62 2b 33 a7 bf f4 f1 75 02 45 8f 84 bf
       -0.045312267031822735 -0.010038890016169845

quantum_pooling f8 [20]
000000 ec b8 a7 ba 1a 55 82 bf 51 b5 02 37 c3 2a 97 bf
       -0.008951386281264871 -0.02262406371362619
000010 f5 3e d4 63 14 ce 90 bf b8 c4 42 9e f3 5e 9a bf
       -0.016411131470760194 -0.025752836737130663
000020 23 49 10 ce d8 fa 80 3f 89 e3 7e 0b dd d2 76 bf
       0.008290952480852603 -0.005572188812885134
000030 32 cc 54 b4 cd f1 82 bf bc 88 78 a8 d6 f2 6c 3f
       -0.00925026613786004 0.0035337631741337566
000040 c4 5a dc ae 05 19 8e 3f cc 01 3b de 31 68 83 bf
       0.014696163557841209 -0.009476079554020432
000050 71 e3 c8 c6 39 0a 79 bf 2f 16 67 ca 13 c9 92 3f
       -0.006113267602409476 0.018345174053840004
000060 e2 58 31 11 dd e4 a6 3f b2 d8 81 d7 de 92 8a 3f
       0.04471484026787366 0.012975445701368524
000070 16 95 06 48 ec 3a 86 bf 02 73 75 03 00 f9 87 bf
       -0.01085457415394812 -0.011705398660234238
000080 16 f0 02 b1 b8 b5 8e 3f 13 21 a8 af 2b 56 97 bf
       0.01499504366108088 -0.0227896524393439
000090 74 f2 c1 14 b4 ac 7b 3f e2 15 68 d7 8c d7 97 3f
       0.006756499711738518 0.023283196112989908

quantum_classifier f8 [8]
000000 a0 f2 2a a8 f2 cb e0 bf f2 5e 3b 9b a4 83 8a 3f
       -0.5248959812666563 0.012946401583959741
000010 56 37 3f b6 82 d7 97 bf 46 de 6a 37 74 57 a6 3f
       -0.02328304517123255 0.04363597084505648
000020 cb af 66 38 d9 25 83 3f 41 43 70 de e6 d6 95 3f
       0.009349534066892226 0.021327597929544643
000030 cd cf 96 e8 f7 fa 95 3f bc 3f b2 fa 5e d4 97 3f
       0.021465180941689078 0.023271068621909072
