Results/Weights/quantum_model_params(old).npz (npz, 6424 bytes, 6 tensors)

quantum_conv_0 f8 [9, 16]
0	0xbf796a34c13bf278	-0.006204801629561822
1	0xbf6426ba5d6597a7	-0.0024598731935609633
2	0x3f7593a8a0bc05ea	0.005267771437276173
3	0x3fb6b8544566827d	0.08875014013620759
4	0x3f7ea95bcc655e5b	0.007485731685242659
5	0x3f7ea7eb1b22de19	0.007484358198943685
6	0x3fb8240934f07730	0.09429986517394862
7	0x3f90323ca91cb800	0.015816638776577463
8	0x3f80147970fe5ccd	0.007851551781455158
9	0xbf691f1949f59975	-0.0030665868686582894
10	0x3f80c65fb9fcda9c	0.008190868247408382
11	0x3f80831d90ffab4e	0.008062582957753552
12	0xbf809ed60527efbb	-0.008115455658291517
13	0xbfc04eb4d3cb24d3	-0.12740192738991726
14	0xbfbbd50180af29f7	-0.10871896163659032
15	0x3f5a48d4e859e618	0.001604278485869753
16	0xbfa3e84383973472	-0.038881406606017146
17	0xbf87d3d75bf9dc5f	-0.011634523863206235
18	0xbf9d9449e7093663	-0.02888598892814399
19	0xbfb3ecef7e0cc185	-0.07783409907711387
20	0x3fb54556901b6762	0.08308926599729952
21	0x3f7baee4ae959e4a	0.006758588112780803
22	0x3f187efa64dbf310	9.344485553337508e-05
23	0xbfb43d3b79597633	-0.07905933106072709
24	0x3f6808fdec9edf93	0.002933975168129829
25	0x3f6fb3d77ec371ae	0.0038699349298509577
26	0xbfaabfb478fb9dc5	-0.052243842857758994
27	0xbf87c7e5841c6e16	-0.011611741155824123
28	0xbf56bb66e0f11b7c	-0.0013874535250281974
29	0x3f867d6cd4ba1dc6	0.010981416932977061
30	0xbf58230a79ec41e8	-0.0014731981570471567
31	0x3fbf109a094c033f	0.12134707190490433
32	0xbf5752dab90121c7	-0.0014235626185997595
33	0xbfa61ebd83ef0fbb	-0.043203279833988494
34	0x3f956105f690d1ec	0.020877926992584436
35	0xbfae3c2d244e743e	-0.05905285900301081
36	0xbf750c6d1b1061ea	-0.0051388036672723545
37	0xbfc0e5a9ddde479f	-0.13200877507602812
38	0xbfb1cf0445b2245e	-0.06956507398185027
39	0xbf6fcc7b864d2a6a	-0.0038816845502982937
40	0x3f8b082724d12981	0.013199144183222657
41	0xbf50c7ac210d7172	-0.001024168104968384
42	0xbf6f1e9c3b7f86a7	-0.0037987758077953795
43	0x3f87251fa7b1fcb8	0.011301276497987053
44	0xbfb59885fb855262	-0.08435857191700216
45	0xbf879fdd0c35e38c	-0.011535384116301527
46	0x3f81161fa1d38044	0.008342978597681967
47	0x3fa6174ae1deeeff	0.043146457740901305
48	0xbf886de1b1141a36	-0.011928332535274238
49	0xbfbccc974c941cc1	-0.11249681109994737
50	0xbf882abbb8c4e5dc	-0.011800257278639252
51	0x3f875d467d74d214	0.01140837736475312
52	0xbf7fd196d0042cb9	-0.007768239127709347
53	0x3f62ac1aceaa0167	0.0022793315486639323
54	0x3fa4cd41b70e18be	0.04062848434027576
55	0x3f9fd60563af4c3a	0.031089863023066246
56	0xbf96f7046fc9b648	-0.02242667133616852
57	0x3f8798f81926bc39	0.011522234218174986
58	0xbf8853511269652c	-0.011877663969402784
59	0x3fa213e341b15050	0.03530798127090462
60	0x3f7dd8ddbd554561	0.007286897821658784
61	0x3f65aeb241ef9b92	0.002646778258611212
62	0xbfa88748bc540b81	-0.04790713595323038
63	0xbfad00f68906d0e0	-0.056647972323305984
64	0x3f946dfea02a9279	0.019950846219801897
65	0x3fb28393d9b0be09	0.07232021393496536
66	0xbf496fd4dcb6a048	-0.0007762708059333512
67	0x3fa37341ac4e2f25	0.03798871258103834
68	0xbf8838332945c6ea	-0.01182594270423772
69	0xbf74b05dbd296d02	-0.00505100838435202
70	0xbf883999e0079e88	-0.011828615331025874
71	0x3fb7196f4d35ed05	0.09023185381913741
72	0x3f47b87e83d13d25	0.0007238977192488878
73	0x3fb7c5ae33f77a67	0.0928601147529463
74	0xbfc94e5c2e24b5b6	-0.19770385983558264
75	0x3f95516b32d7797e	0.02081840036213966
76	0x3f6662f54533dd55	0.002732733768080623
77	0x3f8702e2cf160f6b	0.011235973305481392
78	0x3f69ed950e985e36	0.003165045859315342
79	0xbfc1407a6f56e5a0	-0.13478022037979276
80	0x3f79616f85e12a44	0.006196437489118415
81	0xbf884f88f24969c9	-0.011870450872426457
82	0x3fb594770c249170	0.0842966465612045
83	0x3f7393e0ba91abab	0.00477969917947522
84	0xbf940c65f1503eb9	-0.01957854543075996
85	0x3f7815ecdd25721e	0.005880284547256779
86	0x3f9e4b505ccb5aa4	0.029584174789159548
87	0xbf8847439bb6bca3	-0.011854675473698178
88	0x3f704fcb50ce5aca	0.003982347680809803
89	0xbf74f7acb9c99fe4	-0.0051190135096490265
90	0x3f6cea8735e45e9a	0.0035298004942310836
91	0x3fa1bd7695f50e5f	0.03464861469776958
92	0xbf8466c0bfb0f18e	-0.009961610650969257
93	0x3f88415329e15094	0.011843347278194728
94	0x3f86fdde90249aa3	0.011226404928107064
95	0xbfb5378d633af024	-0.0828789107571884
96	0xbf86d0d0a6fe5c97	-0.011140470596542591
97	0xbf835b7822409fa4	-0.009451807542134656
98	0x3f5930b9e7e4afc2	0.0015374961363461147
99	0x3f7ecf54ace7a3a5	0.00752194477397775
100	0xbfb400b8f90b47e6	-0.07813602523972882
101	0x3f84fdfd8d5b97bf	0.01025007331504557
102	0x3f886dbdd845f2be	0.01192806545508895
103	0xbf93762efa4fbd19	-0.019005521800804368
104	0xbf1e528b8d90cb10	-0.00011567093623980292
105	0xbf863ee809b5009a	-0.01086217193244492
106	0x3fbfed23372cce45	0.12471218201681562
107	0xbf56c70921734799	-0.0013902272383359059
108	0xbf82e65ff163c664	-0.009228467516069823
109	0xbf52a6ad519b5cc2	-0.0011383717123203828
110	0xbfc06092398d1e24	-0.12794711885565946
111	0xbf4ddb4814aadee3	-0.0009111501652432043
112	0xbf4f93be2ef0896e	-0.0009636572484661829
113	0x3fc74f5de913a19c	0.18210958367059227
114	0x3f6bc89938f1b8c0	0.003391551268172227
115	0xbf872c244d53cbfc	-0.01131466256126678
116	0x3f40a2325e3aa3ed	0.0005076166093732605
117	0xbfaba14b275d4f73	-0.05396494727634051
118	0x3faa57914622c291	0.05144933682584452
119	0x3f8d83e9a0d24e2e	0.014411759586699349
120	0x3f92673c1aa33281	0.017971934438536955
121	0xbf9db6173a05b76c	-0.02901493350639532
122	0x3fb3af98e61d5c1f	0.07689815156969403
123	0xbfb3a9839687542f	-0.07680532860770549
124	0x3f33241823a07e08	0.00029206837973735954
125	0x3fc3d57789c54a45	0.15495199420054653
126	0xbfa2cfef1b8e54eb	-0.03674266063095807
127	0x3f554d1c57da7504	0.0013001229084815278
128	0x3f6df931bb1aefe3	0.0036588641458745615
129	0x3f77a09c44730fe4	0.005768404406982317
130	0xbfb76b2a466c0f86	-0.0914789602211937
131	0x3f307c1439ea8208	0.00025153631023935906
132	0xbfa658dbed10a108	-0.043646691025346185
133	0xbf7f30d84f51aa88	-0.007614941559135453
134	0xbf9eaf31a5320dd4	-0.02996518679402789
135	0x3fb766721cdb3280	0.09140694813249617
136	0xbf91ac6f80c6347f	-0.017259351954227228
137	0x3f881bdbbd69ec6b	0.011771885602902729
138	0x3f948602663c7bf5	0.020042455186850067
139	0xbfaebc815c26b73a	-0.060031931399278496
140	0xbf7c4c85c45ee2e4	-0.006908915069225616
141	0x3fb147b4514284f2	0.06750037177927817
142	0xbfb8db338b8a4957	-0.09709474713080134
143	0xbf64bd17e419069e	-0.0025315729733684364

quantum_conv_1 f8 [9, 16]
0	0xbf8334e0e8bc0caa	-0.009378201582427376
1	0x3f918a247835b612	0.017128534161591054
2	0xbfaf0a7baea74c39	-0.06062685496331039
3	0xbfb19d4d4b35ec45	-0.0688064869518011
4	0xbf728b87e3da02ce	-0.004527598209848006
5	0xbf86e02991c58063	-0.011169743310063212
6	0xbf81eacea60d578e	-0.008748640482433758
7	0xbf886c861b2bc2bc	-0.011925742820922174
8	0xbf8075b328e736b9	-0.008036994634405091
9	0xbf7e0149cf4d9533	-0.007325447387164718
10	0xbf869843031c861a	-0.01103260377164177
11	0xbf86a0381c0c993e	-0.011047781330102976
12	0x3fbf685f658d718e	0.12268635014829085
13	0xbf7f2234810d61dc	-0.007600979894811091
14	0xbfacc248b3e52af7	-0.056169769248830485
15	0x3f78a8149e59475b	0.006019669095239734
16	0xbfa209117db77da3	-0.03522543582561901
17	0x3f920860674e036a	0.017610079102726862
18	0x3fab20a55f5c9a20	0.05298344410976008
19	0xbf9533c9a70476fa	-0.020705366915641378
20	0x3fa17b870f5daf9e	0.03414556562969938
21	0xbf859dc186f2d139	-0.010554801874925178
22	0x3f95553f7f8aeb9a	0.020833007964693097
23	0x3fc019121c244659	0.12576509832483643
24	0x3f8127cb389388ef	0.008376681961128144
25	0xbf8dd9561b3b7c74	-0.014574692445817862
26	0xbf9bca4486d4f4b2	-0.027138777474864546
27	0xbf94bd953bc5eca6	-0.020254451535475802
28	0xbf58e09fb111c9e0	-0.0015183982361831536
29	0xbf886cd6aeb54d8f	-0.011926343161269752
30	0xbf85263e89becb02	-0.01032685144295931
31	0x3f95d1c761f9d362	0.0213080552625401
32	0x3f579620ff408de3	0.0014396021115395889
33	0x3fb4f7146b9afe9c	0.08189513804517862
34	0x3f83ce5b291ec51f	0.009670936767948888
35	0x3fca9661e580d30d	0.20771430689060147
36	0x3f6c12b95b5317e7	0.0034268970726740624
37	0xbf98ade89cfa5b74	-0.024100908833669846
38	0xbfa6c59cf62caa5d	-0.04447641854342941
39	0xbf7d0997ceed1c47	-0.00708922672385543
40	0x3f7ad2c5459845d4	0.006548662751371965
41	0x3f868fe9cb1112d8	0.011016680249789898
42	0xbf7f4669e8c5dc86	-0.0076355111199212285
43	0xbf4d76933ac2b6e4	-0.000899145020886141
44	0xbf97b01e0797bd9e	-0.02313277169554128
45	0xbfb68365008ad6f7	-0.08794242156258379
46	0x3f82982447889864	0.009079249794990037
47	0x3f989b4e42f5e6ea	0.02402994426436226
48	0xbf772f18295ddabc	-0.005660147076801788
49	0xbfaf7b1def2333ce	-0.06148618263396309
50	0xbf542ab07e0a98d8	-0.0012308810766313207
51	0xbf875a4b51a26793	-0.011402691296371425
52	0xbf9b3ea0d0fe154a	-0.026606095081225058
53	0x3f4ee2697115b756	0.000942517743323749
54	0xbf53ee61da0db954	-0.0012165027221403184
55	0xbfaa5972574618cc	-0.05146367373804281
56	0xbf884c7670495ed1	-0.011864590932574444
57	0xbf5c248f0ea6e552	-0.0017177006762792613
58	0x3fa75fb7ff8da7dd	0.045652151055790326
59	0x3fa5ed4be44fa2ca	0.042826053256992916
60	0xbfb30d9f3aee5ddb	-0.0744266051173023
61	0xbfa03c843a750ab0	-0.03171170438374327
62	0xbf747a8a03b4ba88	-0.00499967491059173
63	0xbf74d30a1920d394	-0.005084075399328553
64	0xbf7479a860e4082a	-0.004998834351001272
65	0x3fd486fe3dae1764	0.32073932670060956
66	0xbf4f19b9d090ee84	-0.0009491116808315191
67	0x3fa9fb1fc72f01f2	0.05074405008736339
68	0x3fa106573fcbe7bd	0.03325150159612587
69	0x3f76dc371310f13e	0.005581107268025241
70	0x3f87de96661e5130	0.01165502070561128
71	0x3f8ed1a28ca6a4ac	0.015048284451795922
72	0xbf90b2dadbbd6376	-0.016307277356961213
73	0x3f7f904a2f708af8	0.007705964838381922
74	0x3f7c5183d0ca8f20	0.006913676170970523
75	0x3f619811cafdf989	0.0021477077024762464
76	0x3fc56a82503065cd	0.16731289782982942
77	0xbfbf721159e2d9ef	-0.12283428616033353
78	0x3f8191d0e8ab4a19	0.008578903294083994
79	0xbfb8fd1d44e8fa2a	-0.09761221821188629
80	0x3f7f957b086207de	0.007710915180838966
81	0x3fa7aa8cd52151a0	0.046223069207061984
82	0xbf39e9eb1072ed60	-0.0003954123389566435
83	0xbfa71c70f790195e	-0.04513886472709559
84	0xbf86cc7bfedd8170	-0.01113221046006238
85	0x3f80624a719a8546	0.007999974815279597
86	0xbf898bb843503b4b	-0.01247352557586869
87	0xbf78202eb46a0784	-0.0058900665668505416
88	0xbf5e89e2d7b37d84	-0.0018639292964549312
89	0xbf76eecd28a675e8	-0.005598832513354669
90	0x3fc33ddb98df9346	0.15032525028723337
91	0x3f70d7b9a8e880ba	0.004111981614670574
92	0xbfc1bad192760482	-0.13851375247398684
93	0xbf6669b503a9d423	-0.0027359519420380326
94	0xbf7a7c49a6536100	-0.006466186231783633
95	0x3f983a23a7722d42	0.023659283728688203
96	0xbf928b0bd22d8199	-0.01810854406665072
97	0xbf6f4994afdef23f	-0.003819265751160011
98	0xbf7738dec95d4a5a	-0.005669470081402917
99	0x3f9980f0628b84e4	0.024905925764760264
100	0xbfad35422ab0de26	-0.0570469548333075
101	0x3f885f7d1b9acf1f	0.011900880246094979
102	0x3f7ede46521c8d5f	0.007536196413443135
103	0xbf77889c38fc3ed2	-0.005745516056563553
104	0x3fbcdc45ff4de8cd	0.1127361057569118
105	0xbf862e90bd071203	-0.010831003922143095
106	0xbfb01eabca63ad70	-0.06296800318857776
107	0x3f9e8863b67b0cfa	0.029817159664855965
108	0x3fc2f6da4b180e9a	0.14815834681222811
109	0x3fa4dfc03f9e0fe9	0.040769584432410806
110	0xbfb6a0a6cfd946d5	-0.08838884901458795
111	0x3f7c99b0b9039e90	0.006982508013812741
112	0x3fb045566e8c2d42	0.06355800818362403
113	0xbf856a4d615a5806	-0.010456661733126548
114	0xbf82ddf659aaade4	-0.009212422000323302
115	0x3f90de13530413cb	0.016472150747194363
116	0xbf9f69c90fe35ab4	-0.030676976771099887
117	0x3f5147d442e8240d	0.0010547230591575502
118	0xbfd09ed686b0a6b4	-0.259694701703306
119	0xbfa479dde6f74efc	-0.03999226993951585
120	0x3f8236f6cee8ce51	0.008893898190854762
121	0xbfaf9553935daf14	-0.06168614553356924
122	0x3fb97cca2273a508	0.09956038800341471
123	0xbfb4600a580b363f	-0.07959046029574156
124	0x3f833d8f3ea4b9a9	0.009394759272791502
125	0x3f6909a0beaca384	0.0030563487574863397
126	0x3fb4a7e74b8b47be	0.08068700403535353
127	0xbfb484f7f50ca268	-0.08015393955850814
128	0x3fab5aec5a757360	0.05342806438668535
129	0x3f58b2cbd7b671cb	0.001507472100320861
130	0xbfa25ea5c9feb5cd	-0.03587835398443993
131	0xbf80ec3d352394e6	-0.00826309030930834
132	0xbf70ddba0427a1aa	-0.004117704988381746
133	0xbf562d7d3ade900a	-0.0013536189030469736
134	0x3f3ce645c666d9b8	0.00044097140780810116
135	0x3f875a57a0f7e1b3	0.01140278301225881
136	0x3f6f789f45a0ebac	0.0038416968136778164
137	0x3f7a9b28210bc6b5	0.006495625261537509
138	0x3fb8501c48b1a853	0.09497238898043862
139	0xbfaf15908b0f9d9f	-0.060711400008411014
140	0x3fc31a4ca4d1621a	0.14924009368657282
141	0xbfc0ccfc5452e690	-0.1312556659448103
142	0xbf52cf6c6d918c4d	-0.001148086439820134
143	0x3f3aae264a529f60	0.00040710863897651904

quantum_conv_2 f8 [9, 16]
0	0xbf8592462d497169	-0.010532902009054284
1	0xbf6a110d9e153319	-0.003181959721280225
2	0x3f74bd7daa02802d	0.005063525081055825
3	0x3f7a60e45d13eca6	0.006440059705023737
4	0xbf400cb3ad686ec8	-0.0004897954302722435
5	0x3f97f4d2e634442c	0.023394866276309198
6	0xbf884ff70f7a629b	-0.011871271285870668
7	0xbf82c2222145eba9	-0.009159342422881371
8	0x3f9cc39fcb8e5298	0.028089997099942282
9	0xbf877fff44792c11	-0.011474603917255551
10	0x3f947623d544c85a	0.019981918231856667
11	0x3f6ec2ee8899c454	0.003755060087137477
12	0xbf95fddce15fa727	-0.021476222282138437
13	0x3f5ce332bb42d414	0.0017631526398365115
14	0x3f8ca86f77b5cf62	0.013993140068783997
15	0x3f61cd72450c7112	0.002173159773873342
16	0xbf53b09cb3042d94	-0.001201775576251095
17	0x3f6ebe83d92ef82d	0.003752954021790897
18	0x3fb08a5a7520f84e	0.06461110457982608
19	0xbf45c53efeeea168	-0.0006643827053851971
20	0xbf6668bc94d5a7d8	-0.002735489199655366
21	0x3f7239f603809ad0	0.0044498071584146565
22	0x3f789b48f10a615b	0.0060074662475460795
23	0x3fa82746fd1ee380	0.04717466201640885
24	0x3f95a6cefadf4186	0.021144136487977437
25	0x3f9485d3610c8f80	0.020041754530339073
26	0x3fb13d027ded2b62	0.06733718466163688
27	0x3f53a64aeda4fc14	0.0011993152352969315
28	0x3f80cd6d3beff9e6	0.008204320327419756
29	0x3f87a61e29796a3a	0.011547313347525113
30	0xbf882b4e8b94ad4d	-0.011801351198832544
31	0xbf69618cd0864e4e	-0.003098273304382982
32	0x3f6ce0e2ea06f8a4	0.003525202934013443
33	0x3f4f1ad43b26c7f4	0.0009492431911921604
34	0xbf94f80ac51a2b0c	-0.020477455406346087
35	0x3fc295daaa7af87b	0.14519818615184818
36	0xbfa392820e28d4fa	-0.03822714255185562
37	0xbfade6fcb655eeab	-0.058402917154095256
38	0x3fab1a76a94b6db1	0.05293627564034454
39	0x3f9276678c9be8c8	0.018029802281468915
40	0x3f6b06abbb97efe5	0.003299079337692123
41	0x3f6de3ab8ccf4176	0.0036486006342572553
42	0xbf57f513e46dbc62	-0.001462239671777409
43	0xbf9c8996806e6002	-0.027868606175246675
44	0x3f55df8a7a582b2e	0.001335034591991312
45	0xbf7fe756b5257178	-0.007788981153080569
46	0x3fa20e8ea71f9c98	0.03526731290895063
47	0xbf5ac4519635df5f	-0.001633720087594846
48	0xbf95a8c6338c7178	-0.021151635071065183
49	0x3f88168c0bb22acf	0.011761755091602847
50	0xbf859ad33d9b06da	-0.010549211804917236
51	0x3f5880c0deffcf0a	0.0014955409533258823
52	0xbf955923e2fcd1a2	-0.020847855309698134
53	0xbf80e4670cfbfa2b	-0.008248143275975192
54	0xbf8117342a86ad81	-0.008345038936417694
55	0x3f76b1e1652af78c	0.005540733766506888
56	0x3f7fcb4dfa16fdf4	0.0077622457478692015
57	0xbf7def173d7e9776	-0.007308092863160689
58	0xbfb4d3e243bb580f	-0.08135809091194822
59	0xbfb3cdb6e33e4dbb	-0.07735770271238256
60	0xbf875ea1b15968ca	-0.011410964226503135
61	0x3f76ec80f7bc7b5e	0.005596641330867095
62	0xbf87ade55ec70c09	-0.011562149004822346
63	0x3fb5841061de7020	0.08404638661744501
64	0x3f98ba384f0dcd64	0.0241478727579766
65	0xbf3165440373b2c0	-0.00026543531880810975
66	0xbf546d8fb12f5705	-0.00124682457384523
67	0xbfa366a2d82c30cc	-0.037892426384219385
68	0xbf54a4569afe525e	-0.0012598844295769389
69	0x3f863f9468e7f4cd	0.010863456202964273
70	0xbf8820dbd6effe69	-0.011781423088904579
71	0xbf95d2f065d54fb0	-0.021312481131942895
72	0xbf7346a95c966fd1	-0.00470605999853642
73	0x3fb6f726a9359a43	0.08970872527206901
74	0xbf6fb91d0e07ce0f	-0.0038724486805621415
75	0xbf86670f5489586c	-0.010938758628224764
76	0x3f824365e1f04469	0.0089176139427158
77	0x3f866f536cbe9bd2	0.010954524761315119
78	0xbf7b0f15a3af14d2	-0.006606182602756765
79	0x3f57caea0b336638	0.0014521871169591704
80	0x3f6d2f44355bfc7d	0.0035625774570458555
81	0xbf90b7437d935214	-0.016324095286863807
82	0x3f51883a3ed1c266	0.0010700768282526862
83	0xbf79141f97390c6e	-0.006122706795909412
84	0x3fb4e7a40c09ce68	0.08165955823806714
85	0x3fa148302136ffef	0.033753875784441216
86	0x3fc35bf7c5297aa4	0.15124413611461762
87	0xbf903028d0938184	-0.015808713655930187
88	0x3f9a226029da5838	0.025521757654665772
89	0xbf638bc9c3d99f34	-0.0023859921191621506
90	0x3fc3d356d1ef93a5	0.15488705874227296
91	0xbf9407ac834764f0	-0.019560523522021478
92	0xbf970353c3914e14	-0.022473629771708373
93	0xbf55186ad0449dc4	-0.0012875598050160345
94	0xbfc2fc85764fef00	-0.14833133961644052
95	0x3f717622da831d54	0.004263054033976605
96	0xbf8ed96620f631f9	-0.015063093071852928
97	0x3f5530f3fb0d5e32	0.0012934095977551571
98	0xbf886d49888c7220	-0.011927198867447919
99	0x3fbfabfddc691e79	0.12371813422316248
100	0x3fa0d9a85f68820c	0.03291059651042269
101	0x3f3fcf75027179c0	0.00048538786581344903
102	0xbf9ca64b68b1f605	-0.027978113427243673
103	0xbf7aa8200b1f8edc	-0.006507992906310735
104	0xbfb19bdd7fcd4424	-0.0687845646873631
105	0x3fbe893b285cf571	0.11928148017337549
106	0x3fac2ab479b78002	0.05501331315804238
107	0x3f801d609c4568e5	0.007868532914177393
108	0xbfbb8881575ccb4b	-0.10755165465233778
109	0x3fb27454edd17f99	0.07208758169281139
110	0xbf6f51fa7a1a8746	-0.0038232700470225726
111	0x3faf159335f1df13	0.06071147950654967
112	0xbfb8869a028e0228	-0.0958038574444876
113	0xbf55127f22333bb4	-0.0012861482180601515
114	0x3f592a666a97a805	0.001535987869255796
115	0xbf5f1a73a083260c	-0.0018983964128430645
116	0x3f823a3dccde0cf1	0.008900149168545176
117	0x3f6a2b0be8e00b7a	0.0031943543062892795
118	0xbfa69c2bb51b31bb	-0.04416023813027744
119	0xbf611a5020d3fbba	-0.0020877423290807913
120	0x3f6de10e6e7097b4	0.003647354303683204
121	0xbf74a4d49d17b510	-0.005040007135432192
122	0x3f8621268035efa4	0.010805416858367618
123	0xbfa97011e6bba21e	-0.049683150687830344
124	0xbfb7000cf55b7a92	-0.08984452238244447
125	0x3fb08a6e0e75cf56	0.06461227276832679
126	0xbf8857adc74bfa97	-0.011885984081798013
127	0xbf8ce0d34bad7698	-0.014100695368763724
128	0x3fb76e53ea36446e	0.0915272185141178
129	0x3f6f1d455799b969	0.003798137124980606
130	0x3fac28e11ca465c3	0.05499938463817557
131	0x3f181b7244d0c670	9.196171704741753e-05
132	0x3fc22ec84ebd5c62	0.14205268711768598
133	0x3fbc9a93ee726e15	0.11173367091617366
134	0x3f81b18d038c0656	0.008639432593102441
135	0x3fa1e219cc5f1437	0.03492813701408475
136	0x3f74c702c9714469	0.005072604070918898
137	0x3fb2d363b8defd13	0.07353804839566562
138	0xbfa18ee2d15d64c2	-0.034293258721569866
139	0x3f8188490f143ad2	0.00856072499530339
140	0x3fa627c4aa082876	0.0432721574362213
141	0xbfbcb0a775b44954	-0.11207052825583236
142	0xbfac5b7b181ff1a2	-0.055385443396491554
143	0xbfc1e8b425360f55	-0.13991405312492114

quantum_conv_3 f8 [9, 16]
0	0x3f845d71189e6e75	0.009943851054962519
1	0x3f8734a1aa7d1812	0.011330855384255076
2	0x3fb6329ce5ea9e72	0.08670979130931203
3	0x3f51cea0fe1b77ac	0.0010868618195938136
4	0x3fb9642e253bd02b	0.09918487938904323
5	0xbfb31d4ba1db7ab4	-0.07466576291651955
6	0xbfbb49339658cd9a	-0.10658571644380857
7	0x3f58a225625fae3d	0.0015035023766313404
8	0xbf8769ff67e279e1	-0.011432643277939416
9	0x3f1a62bcd87e70c8	0.00010065343496851447
10	0xbfc2449694dbebb4	-0.1427181460238366
11	0xbf680b89a5e5e29e	-0.0029351890981924164
12	0xbfb13685e3c9f0a3	-0.06723820506334958
13	0x3f7d41a8c9fe12fe	0.007142695743713954
14	0xbf88175085d7331e	-0.011763218960277263
15	0xbfa0561f845dc0dc	-0.03190706721113809
16	0x3f74cd505284189a	0.005078614958853001
17	0xbfa631c076b467cd	-0.04334832619697657
18	0x3f44913f5929c686	0.0006276664083328532
19	0x3fa11497011841bf	0.03336021316875159
20	0xbfa2938dd4a2594c	-0.036281997877426336
21	0xbf77797e6be5d90e	-0.005731099923983031
22	0x3f702b0764b72dbe	0.003947285538241583
23	0xbf929384a6ae49e2	-0.018140862153424815
24	0xbf6f9f745160c558	-0.003860213454594568
25	0xbfa502cc98073106	-0.04103698116122882
26	0x3f6272425bc03e37	0.002251748663191024
27	0xbfad1654efc58643	-0.05681100298785371
28	0x3fc0f61de4710304	0.1325108876644877
29	0xbf442f3118de52cc	-0.0006159772617474134
30	0xbf83fb72e23567d2	-0.009756944206561178
31	0xbf7723644b75df69	-0.005648986603197994
32	0xbf6f9ac7961233d1	-0.003857984368158964
33	0x3f79e10f9201fd4a	0.006318150350238591
34	0x3f6455a6f85c448e	0.0024822484146019346
35	0x3f8e8c3b88aba8b8	0.014915909870485286
36	0x3f70190320594493	0.00393010350451663
37	0x3f42a8c26b6ba978	0.0005694341005811196
38	0x3f84fb04d55c9c22	0.010244405518802738
39	0xbfc540f582df62c2	-0.16604489221824364
40	0xbfb6859e61a79088	-0.08797635921615854
41	0x3fb2c811ab77a07e	0.0733653110143013
42	0x3fb9ce35751d2737	0.10080274686074807
43	0x3f81b443f31c5dfa	0.00864461026826201
44	0xbf40c90ec0301350	-0.0005122491860452914
45	0xbf87b1fd07b6110f	-0.011569954679324227
46	0x3fcf2ab622e0db13	0.24349095061344225
47	0x3fa92f9ac5261d1c	0.04919131905176696
48	0xbf6a984e578ac3c2	-0.003246453296320757
49	0xbfa119906df1bcf9	-0.03339816419690495
50	0xbfb8d47b3f40bee4	-0.09699220937977376
51	0xbf72c5a9dc54c492	-0.004583037870632316
52	0xbf8e5552ac05377e	-0.014811178087849926
53	0xbfb42d227583ae01	-0.07881369942668216
54	0xbf7530e08a56feb8	-0.00517356597032375
55	0xbfa74ca826e8377d	-0.045506720303918315
56	0x3fbadfcc2f5ea695	0.10497738033759625
57	0x3f9b07ee878a9bf6	0.026397444746773822
58	0xbf59080aa3496d1c	-0.0015277961621425534
59	0x3fb5a1b6fc442ffb	0.08449882181974992
60	0x3f597c3d2c67b36e	0.0015554997822803912
61	0xbf991324c6c6d9c0	-0.024487089760180103
62	0x3fb6b8f0532df7a3	0.08875944166899656
63	0xbf6b48a0c7d936cf	-0.003330530190203663
64	0xbfa51c186324bdaa	-0.04122997484443698
65	0x3f69f4df3508a617	0.003168521834841408
66	0xbf9a738d16501fbf	-0.025831417548061838
67	0xbfb32eaf8cf81f9a	-0.07493111793166776
68	0x3f9f570ed9d575be	0.030605537457963676
69	0x3fc04222febc9ea3	0.1270183318931589
70	0xbfb39456dfad61a0	-0.07648222885962364
71	0xbf59709f815b3400	-0.0015527303379940793
72	0xbf7699b1aad802b7	-0.005517667782897354
73	0x3f7be04499679144	0.006805675473945453
74	0xbf47e8589e8fa6dc	-0.0007296021186650975
75	0xbf99559880cb3e7e	-0.024740584240872547
76	0xbf5f2310c1d0e4f4	-0.0019004501002782255
77	0xbf962d75c91646f6	-0.021657791517617896
78	0xbf847bc6c4c4c180	-0.01000170982351345
79	0x3f5e7f93cabe1999	0.0018614714890375693
80	0x3f802255d8659ade	0.007877989450844888
81	0xbf9d88e02d13b016	-0.02884245181205366
82	0x3f403dbf286a5a84	0.0004956420314837372
83	0x3f8e27ce1095d840	0.014724359398979314
84	0xbf784f022d18e804	-0.005934723377828636
85	0xbfa22d148451f04d	-0.03550018420443788
86	0x3f6ddb2928895a67	0.0036445430635397183
87	0x3f8d6a1042e2e1a6	0.01436245636101392
88	0xbfba6cb78a30d404	-0.1032213890437817
89	0xbf68a52604d07f99	-0.0030084364466488986
90	0xbf7ac764620030f5	-0.006537811394093253
91	0xbf4fd586e84fca48	-0.0009714993217343005
92	0xbf8f9d99385a6c92	-0.015437314064277428
93	0xbfbddc78b5f803f3	-0.11664537851903826
94	0xbfb95d3922a9ce4c	-0.0990787229182441
95	0xbf5f30029580b116	-0.0019035363420796861
96	0xbf832f8eadcaf1a4	-0.009368052176221671
97	0xbf9d386a27a7597f	-0.028535517378111216
98	0x3f7271435c30b05c	0.004502547383747748
99	0xbfba39908d95c3b3	-0.10244086701074089
100	0x3f2095f303caf270	0.00012653914918371893
101	0xbfadbe6393630c24	-0.058093177548947744
102	0xbf7703c30b3ba1c2	-0.0056188219930181655
103	0xbf5f2be66c4b1698	-0.0019025564408123082
104	0xbf98fdc59a1a9497	-0.024405562906981784
105	0x3f8763e68aece8d0	0.011421013941447816
106	0x3fa395f91e906e40	0.0382535791215699
107	0x3f3fdec821d05dd0	0.000486301288959959
108	0x3f96a103444b4a9e	0.022098589938489448
109	0xbfa9b087788efcb8	-0.050174935785884
110	0xbf704c8bb991c6aa	-0.0039792497637890865
111	0x3fb4a9cf728d5e88	0.08071610018429898
112	0xbfc76acb4e865f13	-0.18294659933302934
113	0xbf92f460bf797d4b	-0.01851035278957384
114	0xbf3ef45f94e6e9c0	-0.00047232945953692637
115	0x3f7297cb305dd19c	0.004539293009532843
116	0xbf87f2a8dd5bddef	-0.0116933052590715
117	0xbf5b240f2ede51f0	-0.0016565464279426588
118	0x3f65fff638295ccd	0.002685528657177727
119	0xbf48015c69ea1626	-0.0007325841177851552
120	0x3fab95db9f33daed	0.05387770002737633
121	0xbf82796b03a1d08f	-0.009020649002401874
122	0xbf8867a53dd1dcee	-0.0119164380541705
123	0x3f85af3ff097e5ff	0.010588168649507955
124	0x3f7bc138b7442f5a	0.0067760673011994735
125	0x3f83f3585f51b0c9	0.009741487893017002
126	0xbf86db3084831b46	-0.011160258335065298
127	0x3f84f6cd2ca20bb4	0.01023636143168525
128	0xbf8656c49b9e1f3a	-0.01090768432528898
129	0x3fc25e83af439fa4	0.14350935037441304
130	0x3f9a04f3710136ca	0.025409511348974324
131	0x3f88379117dadd8b	0.011824735203261457
132	0x3fad40fe06d20ef0	0.057136476833901884
133	0x3f85f6cc1667bbc2	0.010724634584191043
134	0xbfc1e518a707aea6	-0.13980396419298308
135	0xbfa3ac8a21dde5d6	-0.03842574752247756
136	0xbfbf89016f0d6409	-0.12318428956258755
137	0x3f88636530039834	0.011908331420681241
138	0x3f54af02f2772825	0.0012624291210721142
139	0x3fba9a57010b9d1b	0.1039175393631137
140	0xbf883d12501a33be	-0.01183523470833758
141	0x3f7928db078ef83a	0.006142478546221903
142	0x3f9607db23bd2500	0.021514343315435447
143	0xbfc418e33c8d7c7c	-0.1570095105807673

quantum_pooling f8 [20]
0	0xbf7f28abf93e3185	-0.007607146999259466
1	0x3f90840e7b54c54e	0.016128755834136137
2	0xbfb598f04b3d6c45	-0.0843649085704082
3	0x3faa636ee071fdbc	0.05153986444292566
4	0xbf88695df01fa7f8	-0.011919721498959021
5	0x3f856c4a0591aeb6	0.010460451407389253
6	0x3f70745d2f2f7d14	0.004017223359340311
7	0x3fc4db1a03bca9e5	0.16293645079106436
8	0xbf622dfe56a15f70	-0.002219197039305891
9	0xbf819558da7e4958	-0.008585638206373744
10	0x3f813a63e0d384c2	0.008412151621487122
11	0xbf97fac0d79da89e	-0.023417485389849994
12	0x3f961e808715ff4c	0.021600731129637382
13	0xbf989395a158363f	-0.02400049016255523
14	0x3f473dbbff0720fc	0.0007092636060912756
15	0x3f7e373219323cf4	0.007376857468570853
16	0xbf7de4fdf0c8fc6a	-0.007298461871470522
17	0xbf885cb1e19fcc2e	-0.01189555139351314
18	0x3fa51fcdf21c68d6	0.04125827389198526
19	0x3f75dc1292c21f74	0.005336830665448978

quantum_classifier f8 [8]
0	0x3f846b05f4c3abef	0.00996975568019384
1	0xbfa23c3aa14a3038	-0.03561576098317726
2	0x3f82d1c83166ae18	0.00918918991813826
3	0xbf87b76d92fb56a7	-0.011580329940822877
4	0x3f8e7397cc4160da	0.014868913575057641
5	0xbf9ef34dcb02d7b0	-0.030225005641760283
6	0x3f99df982a26bac4	0.02526700742026368
7	0x3fb27fb32eb56964	0.07226104631755487
