Results/Weights/quantum_model_params.npz (npz, 2160 bytes, 6 tensors)

quantum_conv_kernel_0 f8 [4, 1, 2]
000000 25 8b 24 e4 83 c2 e3 3f bf 23 b4 7e a5 38 8c bf
       0.6174945312417078 -0.013779919556798135
000010 2c 3e 82 b9 6a 78 a5 bf ba f8 5b cb 39 4d d1 bf
       -0.04193433298598523 -0.2703384862833321
000020 cb 7e d6 74 9f 5d ce 3f e4 bd be d7 39 53 91 3f
       0.23723214344953755 0.016919044297251676
000030 10 cd 55 cb b8 5b f0 bf ed d1 3d 80 ef d8 e0 bf
       -1.0223930304317186 -0.5264813904491895

quantum_conv_kernel_1 f8 [4, 1, 2]
000000 fe be 5c d0 13 06 e4 bf 21 14 5c 3c 65 75 b6 bf
       -0.6257418698860133 -0.08772881244301846
000010 92 cb 7b b1 a2 d0 ee bf aa f2 0a 0a e9 29 e3 bf
       -0.9629682032085489 -0.5988660045764693
000020 73 14 58 f9 79 42 d1 3f 6e 45 e4 40 e3 5b df bf
       0.2696824011803251 -0.48998338067129665
000030 f4 7c 12 b7 17 13 b3 bf b3 4c 35 8c 30 9c d9 bf
       -0.07451008052383995 -0.40015805904586016

quantum_conv_kernel_2 f8 [4, 1, 2]
000000 a7 81 72 15 d4 bd e7 bf 98 92 71 36 06 8b 81 3f
       -0.7419224184887313 0.008565948997963077
000010 23 e5 23 a6 8c 57 d8 3f fd 09 fd 6a 12 c8 bb 3f
       0.3803435919249571 0.10852160560629183
000020 b3 83 20 7f f1 5d de 3f ca a9 41 87 c4 90 b6 3f
       0.47448384680506733 0.08814647962723324
000030 17 42 e1 2e d2 47 59 3e 78 69 a8 eb 4c e5 a6 be
       2.35443477425387e-08 -6.823451806387825e-07

quantum_conv_kernel_3 f8 [4, 1, 2]
000000 b0 e5 64 21 e6 79 93 be a8 a4 04 ed d5 07 6d be
       -2.9021751525893236e-07 -5.407372116940506e-08
000010 e7 c5 9f 20 03 c2 ab be c0 f0 a5 6b 93 ee 81 be
       -8.272486990963186e-07 -1.33603341566959e-07
000020 64 13 ca 70 fa 21 87 3e 90 d1 d8 31 c4 85 32 be
       1.723522519322877e-07 -4.31261140475186e-09
000030 5c 15 05 f7 18 1e 84 3e 92 c2 99 5a 32 96 ac 3e
       1.4988756503513708e-07 8.519502234360934e-07

quantum_pooling f8 [24]
000000 04 3f 96 15 8f cd e6 bf 69 75 3f 13 26 3c ad bf
       -0.7125926419848558 -0.05709952340087449
000010 13 e7 60 ba 29 b1 d6 bf 34 ad 68 8e 75 46 ed 3f
       -0.35456317139652177 0.9148509770797433
000020 ba 84 58 ba f9 ee e1 3f 6d bb 95 e1 6a 8e df bf
       0.5604218139234469 -0.4930674746491864
000030 1f 95 89 22 c0 c3 c7 3f b2 57 65 68 8a 09 d5 bf
       0.18566133200071364 -0.32870731539639586
000040 d0 31 49 6b 1f 00 e2 3f 9c bf f1 a8 5e 50 a7 bf
       0.5625149817874959 -0.04553504764851299
000050 0e 58 e8 24 96 99 d2 bf f1 fe 77 dc 17 46 7f bf
       -0.29062417606599034 -0.007635205467067628
000060 d4 5e 56 2e a3 43 93 3f 1f 4e b6 d3 c1 08 b2 3f
       0.018812703803262235 0.07044612330201304
000070 c0 df 71 28 cd 78 d6 3f 11 5a e8 b5 36 ea a5 3f
       0.3511231322258901 0.04280253382255606
000080 e6 51 30 d8 eb 24 9f bf e8 87 8c ae e7 d1 c4 3f
       -0.03041428095828449 0.1626557924546994
000090 b8 de 82 30 d2 ed 87 be 14 ce 79 f7 4f e5 7c be
       -1.782848573267208e-07 -1.0764506252498601e-07
0000a0 b7 e1 89 77 48 34 92 3e 64 7c 21 81 c1 0b 75 3e
       2.712641769329952e-07 7.840216678785079e-08
0000b0 e9 fa 8d 7c 20 4e a8 be 33 ee e3 35 d6 a0 a5 3e
       -7.243509055758498e-07 6.445726332954986e-07

quantum_classifier f8 [8]
000000 34 6c 00 86 af 40 a0 bf 08 98 6a 18 83 61 69 be
       -0.03174351225626318 -4.727562257404808e-08
000010 d4 54 60 57 ed 5f 57 be 48 78 95 ba b8 6e 80 3e
       -2.1769400025755913e-08 1.2243171213904462e-07
000020 e9 6b 56 25 5f 13 76 3e 75 66 03 a6 a3 aa 6b be
       8.223828137090196e-08 -5.1532982993461e-08
000030 f7 05 8e 02 3d 1a 8e be 70 e8 8d ce 76 b4 a3 be
       -2.242810535312405e-07 -5.87252910396657e-07
